app/orin_nano/camera_service/models/backup/facenet_model.tflite (tflite, 35168 bytes, 5 tensors)

arith.constant f4 [32, 3, 3, 3]
0.103956476 -0.014026664 -0.08409543 -0.09134145 0.09738336 0.01401317 0.03540317 0.07360889
-0.0690939 -0.0249133 -0.08130192 -0.0043597184 0.12339976 -0.13540909 0.05771808 -0.09709424
-0.117590055 0.12484871 0.033994418 -0.0247156 0.116914645 0.00850041 0.057611845 -0.06914721
-0.13398771 0.12500933 0.09774506 -0.016987639 0.10353133 -0.06254706 0.13250029 -0.06275482
0.07463179 0.07036523 0.059184607 0.13200755 -0.0757792 0.028839493 -0.115957566 -0.012597225
-0.0016387259 -0.0027711845 -0.1170176 -0.08649527 -0.05119225 -0.06214095 0.07662022 -0.010429652
0.10720369 -0.040426716 0.07160996 0.108281605 -0.007908057 -0.05883803 -0.033783082 -0.047983855
-0.019742247 0.09433184 -0.087268345 0.08007851 0.042482868 -0.038456365 0.05618866 0.009917934
0.04450515 0.028247958 0.032098535 -0.084189594 -0.04294225 -0.13784316 -0.1287082 0.04593961
0.0369528 0.05662966 0.10254605 -0.059659224 -0.03685322 -0.013594835 -0.09922301 -0.0797793
-0.11848768 -0.018518467 0.010422086 0.031035421 -0.010584517 0.07688829 -0.12566553 0.011579567
-0.13185355 -0.09129179 0.11000535 -0.072114244 -0.051193964 -0.06789107 -0.019927837 0.012027004
0.10198027 0.10780633 -0.02810154 -0.11141062 -0.043834314 0.06635919 0.099582545 -0.051968057
0.12743968 0.03363469 0.08897405 -0.029842556 0.0046702228 -0.019184493 0.040026847 -0.11387214
0.1266254 -0.12791133 0.111323975 0.016214402 -0.09722263 -0.040574946 -0.011707459 -0.10886995
-0.016697003 0.057976786 -0.08064797 0.017878134 0.04518061 0.13063817 -0.004882458 -0.13158925
0.0087207025 0.07369423 0.08528019 0.040989727 -0.11372882 -0.09370219 0.1211637 -0.055612728
0.07881043 0.096835695 -0.08860845 -0.029052636 0.1055619 -0.12038245 -0.027525032 -0.03156762
-0.081447326 0.025277497 -0.0765725 0.05110737 -0.07164867 0.030571751 0.099892676 0.09956415
-0.046754647 0.10566885 0.022161657 -0.012697608 -0.042938437 -0.10414565 0.12577215 -0.12783699
-0.08532951 0.10999187 -0.10876914 -0.09106207 -0.1352128 -0.06401513 -0.015531771 -0.0137564475
-0.07789984 0.09398851 -0.06471201 0.1340305 0.049456075 0.08999079 -0.0004818415 -0.081448674
-0.12536265 0.087694846 -0.07003138 -0.092872806 0.026393184 -0.08139404 0.11987394 0.066879086
-0.13228396 0.027317608 0.067259684 -0.056345187 0.06646732 -0.015128918 0.102981426 -0.022324318
-0.04600042 -0.02827473 -0.09955291 0.08698008 -0.090176284 -0.062464934 -0.06424065 -0.07481014
0.13599236 -0.078272305 -0.033548098 -0.027320005 -0.06609164 -0.030845422 -0.13101289 0.039715033
-0.0006835173 -0.060205698 -0.11735695 -0.013669691 0.10508758 0.12505582 0.063302435 -0.057176836
0.07090714 -0.10644285 0.043143865 0.08404243 -0.05093372 -0.050241124 0.06977712 0.088049285
0.014736782 -0.07323185 0.1113228 -0.11802764 0.022585815 -0.0800765 0.026078168 0.10246308
0.095109515 -0.047235444 0.025031662 0.09747065 0.086078025 -0.08209677 0.0057701087 -1.3359664e-05
-0.09182971 0.097307056 0.12596363 -0.105573244 -0.11350972 0.038079895 0.07401266 0.051222112
-0.0020803544 -0.084877856 -0.013435622 -0.123032965 -0.05428393 0.09057758 0.043010164 0.024438296
00000000: 22e7 d43d 18d0 65bc 3a3a acbd 3a11 bbbd
00000010: ed70 c73d 7f97 653c ea02 113d 42c0 963d
00000020: 1a81 8dbd fa16 ccbc 9f81 a6bd f8db 8ebb
00000030: 03b9 fc3d aea8 0abe cb69 6c3d 58d9 c6bd
00000040: 0ed3 f0bd aeb0 ff3d bb3d 0b3d 5f78 cabc
00000050: f270 ef3d 4e45 0b3c 66fa 6b3d 0d9d 8dbd
00000060: 1334 09be 7202 003e 902e c83d a929 8bbc
00000070: 3c08 d43d ac18 80bd 28ae 073e 9985 80bd
00000080: 8dd8 983d a51b 903d 8f6b 723d fd2c 073e
00000090: 2032 9bbd cd40 ec3c 297b edbd 9764 4ebc
000000a0: 84ca d6ba c39c 35bb eca6 efbd 6f24 b1bd
000000b0: f7ae 51bd 8287 7ebd 10eb 9c3d 22e1 2abc
000000c0: 9c8d db3d 7c96 25bd 3ea8 923d bfc2 dd3d
000000d0: cc90 01bc 2500 71bd 2160 0abd b88a 44bd
000000e0: 7eba a1bc 0d31 c13d bfb9 b2bd 3400 a43d
000000f0: 8402 2e3d 6c84 1dbd 1526 663d d57e 223c
00000100: 084b 363d 4368 e73c c179 033d 986b acbd
00000110: 36e4 2fbd c226 0dbe 15cc 03be 2c2b 3c3d
00000120: d25b 173d 81f4 673d aa03 d23d 3b5d 74bd
00000130: 67f3 16bd dfbc 5ebc 6f35 cbbd 5463 a3bd
00000140: aba9 f2bd 0ab4 97bc 66c1 2a3c ff3d fe3c
00000150: af6a 2dbc 9c77 9d3d 77ae 00be 39b8 3d3c
00000160: 9e04 07be 31f7 babd 7c4a e13d a2b0 93bd
00000170: c3b0 51bd 790a 8bbd b43f a3bc e90c 453c
00000180: 08db d03d 91c9 dc3d 3335 e6bc 402b e4bd
00000190: 9c8b 33bd 54e7 873d eff1 cb3d 75dc 54bd
000001a0: 8c7f 023e 87c4 093d 0738 b63d 6078 f4bc
000001b0: ab08 993b cc28 9dbc 31f3 233d cc35 e9bd
000001c0: 17aa 013e 30fb 02be d3fd e33d 11d4 843c
000001d0: a91c c7bd ea31 26bd a4d0 3fbc 35f7 debd
000001e0: 27c8 88bc 1179 6d3d c32a a5bd 2a75 923c
000001f0: 4e0f 393d 03c6 053e 07fd 9fbb 55bf 06be
00000200: 47e1 0e3c 00ed 963d 61a7 ae3d d8e4 273d
00000210: a8ea e8bd efe6 bfbd ad24 f83d 2cca 63bd
00000220: 5d67 a13d cb51 c63d 5978 b5bd cbff edbc
00000230: d630 d83d 138b f6bd 2d7c e1bc 0c4d 01bd
00000240: dbcd a6bd c112 cf3c 0bd2 9cbd f655 513d
00000250: 8abc 92bd 9c71 fa3c 8894 cc3d 4ae8 cb3d
00000260: cd81 3fbd e968 d83d 5d8c b53c a109 50bc
00000270: 37e0 2fbd 514a d5bd 6aca 003e b3e7 02be
00000280: 3dc1 aebd 6b43 e13d 5bc2 debd c07e babd
00000290: 3975 0abe 5d1a 83bd f878 7ebc b962 61bc
000002a0: f489 9fbd 0c7d c03d bb87 84bd 4b3f 093e
000002b0: 7492 4a3d 174d b83d ac9f fcb9 90ce a6bd
000002c0: 115f 00be 5b99 b33d 9d6c 8fbd 1934 bebd
000002d0: 8536 d83c ebb1 a6bd 7880 f53d e7f7 883d
000002e0: 7275 07be 2dc9 df3c 72bf 893d 36ca 66bd
000002f0: 0520 883d 48df 77bc ede7 d23d 7de1 b6bc
00000300: f06a 3cbd 68a0 e7bc 65e2 cbbd 9d22 b23d
00000310: 58ae b8bd 3bdb 7fbd 9a90 83bd 0f36 99bd
00000320: 9541 0b3e 3b4d a0bd bb69 09bd 34ce dfbc
00000330: 0e5b 87bd 8aaf fcbc 3e28 06be 3bac 223d
00000340: 122e 33ba 409a 76bd d758 f0bd d7f6 5fbc
00000350: 2838 d73d a20e 003e b5a4 813d 4232 6abd
00000360: c337 913d b5fe d9bd 9fb7 303d 701e ac3d
00000370: e09f 50bd a3c9 4dbd 4fe7 8e3d 2f53 b43d
00000380: 8b72 713c 95fa 95bd 35fd e33d 7ab8 f1bd
00000390: e305 b93c 26ff a3bd e2a1 d53c 2ad8 d13d
000003a0: c7c8 c23d f479 41bd 330f cd3c b19e c73d
000003b0: ad49 b03d 5a22 a8bd 2e13 bd3b 5223 60b7
000003c0: 3711 bcbd ec48 c73d 9cfc 003e c936 d8bd
000003d0: c977 e8bd aaf9 1b3d f393 973d 47ce 513d
000003e0: 8e56 08bb 71d4 adbd 1521 5cbc b5f8 fbbd
000003f0: d458 5ebd bd80 b93d 6d2b 303d d232 c83c

arith.constant2 f4 [64]
0.0 0.0 0.0 0.0 0.0 0.0 0.0 0.0
0.0 0.0 0.0 0.0 0.0 0.0 0.0 0.0
0.0 0.0 0.0 0.0 0.0 0.0 0.0 0.0
0.0 0.0 0.0 0.0 0.0 0.0 0.0 0.0
0.0 0.0 0.0 0.0 0.0 0.0 0.0 0.0
0.0 0.0 0.0 0.0 0.0 0.0 0.0 0.0
0.0 0.0 0.0 0.0 0.0 0.0 0.0 0.0
0.0 0.0 0.0 0.0 0.0 0.0 0.0 0.0
00000000: 0000 0000 0000 0000 0000 0000 0000 0000
00000010: 0000 0000 0000 0000 0000 0000 0000 0000
00000020: 0000 0000 0000 0000 0000 0000 0000 0000
00000030: 0000 0000 0000 0000 0000 0000 0000 0000
00000040: 0000 0000 0000 0000 0000 0000 0000 0000
00000050: 0000 0000 0000 0000 0000 0000 0000 0000
00000060: 0000 0000 0000 0000 0000 0000 0000 0000
00000070: 0000 0000 0000 0000 0000 0000 0000 0000
00000080: 0000 0000 0000 0000 0000 0000 0000 0000
00000090: 0000 0000 0000 0000 0000 0000 0000 0000
000000a0: 0000 0000 0000 0000 0000 0000 0000 0000
000000b0: 0000 0000 0000 0000 0000 0000 0000 0000
000000c0: 0000 0000 0000 0000 0000 0000 0000 0000
000000d0: 0000 0000 0000 0000 0000 0000 0000 0000
000000e0: 0000 0000 0000 0000 0000 0000 0000 0000
000000f0: 0000 0000 0000 0000 0000 0000 0000 0000

arith.constant3 f4 [32]
0.0 0.0 0.0 0.0 0.0 0.0 0.0 0.0
0.0 0.0 0.0 0.0 0.0 0.0 0.0 0.0
0.0 0.0 0.0 0.0 0.0 0.0 0.0 0.0
0.0 0.0 0.0 0.0 0.0 0.0 0.0 0.0
00000000: 0000 0000 0000 0000 0000 0000 0000 0000
00000010: 0000 0000 0000 0000 0000 0000 0000 0000
00000020: 0000 0000 0000 0000 0000 0000 0000 0000
00000030: 0000 0000 0000 0000 0000 0000 0000 0000
00000040: 0000 0000 0000 0000 0000 0000 0000 0000
00000050: 0000 0000 0000 0000 0000 0000 0000 0000
00000060: 0000 0000 0000 0000 0000 0000 0000 0000
00000070: 0000 0000 0000 0000 0000 0000 0000 0000

tfl.pseudo_qconst i1 [64, 3, 3, 32]
-17 -9 -95 17 28 4 67 -86
-83 115 93 117 -15 88 16 29
-47 -127 72 122 -8 -56 -49 -3
-87 -61 -79 105 57 37 -88 102
-44 101 101 62 -87 73 46 18
-90 -125 -100 -29 -98 -119 -113 -72
-29 -19 21 121 72 -75 86 67
16 -118 38 0 29 93 -14 -124
-43 -13 -16 60 -43 30 18 -113
-116 16 79 -90 69 59 41 125
11 -1 -21 59 105 -48 -7 -87
-78 -115 -64 19 69 -50 -119 55
96 -40 28 -46 -110 -53 77 14
2 57 78 108 95 105 -114 -127
109 103 -18 123 18 107 -31 3
87 -102 -114 50 57 -123 76 29
-109 75 115 68 39 28 -46 -123
-114 99 -62 69 87 -58 84 34
-32 -23 -29 -8 108 96 7 -39
62 54 -61 37 -89 27 -60 14
63 31 -25 76 -28 74 118 -64
126 68 91 -42 -104 -45 -102 115
-73 -105 -41 125 10 16 -79 98
9 17 71 93 -124 -27 57 -82
115 -122 -69 75 -49 34 -87 72
-54 50 -71 -60 -90 102 78 -23
16 -101 122 -6 32 -114 -116 97
34 71 18 33 12 99 -79 125
-59 -106 75 88 12 100 -107 56
-55 2 -89 -55 15 81 3 88
-68 -32 110 -3 101 28 -122 117
-64 99 40 125 -48 -90 114 -41
00000000: eff7 a111 1c04 43aa ad73 5d75 f158 101d
00000010: d181 487a f8c8 cffd a9c3 b169 3925 a866
00000020: d465 653e a949 2e12 a683 9ce3 9e89 8fb8
00000030: e3ed 1579 48b5 5643 108a 2600 1d5d f284
00000040: d5f3 f03c d51e 128f 8c10 4fa6 453b 297d
00000050: 0bff eb3b 69d0 f9a9 b28d c013 45ce 8937
00000060: 60d8 1cd2 92cb 4d0e 0239 4e6c 5f69 8e81
00000070: 6d67 ee7b 126b e103 579a 8e32 3985 4c1d
00000080: 934b 7344 271c d285 8e63 c245 57c6 5422
00000090: e0e9 e3f8 6c60 07d9 3e36 c325 a71b c40e
000000a0: 3f1f e74c e44a 76c0 7e44 5bd6 98d3 9a73
000000b0: b797 d77d 0a10 b162 0911 475d 84e5 39ae
000000c0: 7386 bb4b cf22 a948 ca32 b9c4 a666 4ee9
000000d0: 109b 7afa 208e 8c61 2247 1221 0c63 b17d
000000e0: c596 4b58 0c64 9538 c902 a7c9 0f51 0358
000000f0: bce0 6efd 651c 8675 c063 287d d0a6 72d7

tfl.pseudo_qconst1 i1 [128, 64]
-55 -15 113 9 107 -118 -87 -43
-38 69 -11 -91 49 -93 -117 80
-86 -68 -57 116 120 49 -76 38
-22 46 33 -108 21 74 48 -80
110 -38 -64 55 -126 -76 -69 76
-30 -33 -36 -114 -38 95 -107 -101
24 -62 -15 -21 -114 106 -60 64
121 121 -120 -58 70 127 -77 -105
-1 35 93 99 -105 86 37 -125
101 70 66 65 -24 -53 -5 -102
97 -48 23 127 58 -58 -96 -65
-18 106 -81 -70 6 61 93 65
-5 -39 -41 58 126 47 21 -121
3 15 124 54 -39 92 -110 -121
81 28 -45 110 55 -4 -55 -63
116 92 -98 -126 54 -63 58 11
-95 -39 84 27 -34 63 -25 -2
56 -85 90 -88 -22 2 70 -6
16 12 79 2 -29 -107 -61 118
-68 -24 24 61 -49 117 -87 -80
-97 56 -45 -41 92 86 98 1
18 36 -18 -17 -75 111 -76 -66
45 94 -88 23 43 -88 3 15
-91 127 6 112 -35 -72 4 72
-74 16 5 67 56 -79 -118 93
85 23 -14 35 34 -16 -104 -101
26 127 -18 72 -3 -104 -87 -57
-49 15 -79 -98 3 16 -90 97
25 -88 -79 66 -116 111 13 -95
-107 -7 79 -102 -89 -20 -29 124
-53 117 37 -39 -15 105 101 119
-101 -2 -76 123 -116 50 23 -97
00000000: c9f1 7109 6b8a a9d5 da45 f5a5 31a3 8b50
00000010: aabc c774 7831 b426 ea2e 2194 154a 30b0
00000020: 6eda c037 82b4 bb4c e2df dc8e da5f 959b
00000030: 18c2 f1eb 8e6a c440 7979 88c6 467f b397
00000040: ff23 5d63 9756 2583 6546 4241 e8cb fb9a
00000050: 61d0 177f 3ac6 a0bf ee6a afba 063d 5d41
00000060: fbd9 d73a 7e2f 1587 030f 7c36 d95c 9287
00000070: 511c d36e 37fc c9c1 745c 9e82 36c1 3a0b
00000080: a1d9 541b de3f e7fe 38ab 5aa8 ea02 46fa
00000090: 100c 4f02 e395 c376 bce8 183d cf75 a9b0
000000a0: 9f38 d3d7 5c56 6201 1224 eeef b56f b4be
000000b0: 2d5e a817 2ba8 030f a57f 0670 ddb8 0448
000000c0: b610 0543 38b1 8a5d 5517 f223 22f0 989b
000000d0: 1a7f ee48 fd98 a9c7 cf0f b19e 0310 a661
000000e0: 19a8 b142 8c6f 0da1 95f9 4f9a a7ec e37c
000000f0: cb75 25d9 f169 6577 9bfe b47b 8c32 179f
